tt-train/tests/local_data/tiny_mlp.safetensors (safetensors, 784 bytes, 6 tensors)

net.0.bias f4 [4]
0.0 0.0 0.0 0.0
00000000: 0000 0000 0000 0000 0000 0000 0000 0000

net.0.weight f4 [4, 2]
0.3930099 0.8285494 0.8702073 0.88235676 0.19901454 -0.86958265 0.0919925 -0.62560534
00000000: 9838 c93e d01b 543f e8c5 5e3f 22e2 613f
00000010: 78ca 4b3e f89c 5ebf 9066 bc3d ac27 20bf

net.2.bias f4 [4]
0.0 0.0 0.0 0.0
00000000: 0000 0000 0000 0000 0000 0000 0000 0000

net.2.weight f4 [4, 4]
-0.80709594 0.76945704 0.65849084 -0.8638845 0.16209576 -0.14589065 -0.14251414 -0.3964291
0.3330354 -0.5129499 0.3174774 0.43795606 0.61996293 0.32381654 -0.85713583 -0.56178796
00000000: d79d 4ebf 23fb 443f db92 283f 8927 5dbf
00000010: 6efc 253e 5c64 15be 3aef 11be c1f8 cabe
00000020: 9e83 aa3e af50 03bf 668c a23e c73b e03e
00000030: e4b5 1e3f 48cb a53e 416d 5bbf 56d1 0fbf

net.4.bias f4 [8]
0.0 0.0 0.0 0.0 0.0 0.0 0.0 0.0
00000000: 0000 0000 0000 0000 0000 0000 0000 0000
00000010: 0000 0000 0000 0000 0000 0000 0000 0000

net.4.weight f4 [8, 4]
0.35306904 0.14799841 -0.55160266 -0.40716586 0.6652102 0.47646117 -0.30831632 -0.17796801
-0.6735886 -0.012709634 -0.53249305 -0.54543155 -0.038961306 0.10616858 -0.28958163 0.41958132
-0.4303021 0.6416075 0.4845802 -0.59629107 -0.1759878 0.03190651 0.103167646 0.16770753
0.27748868 0.042355813 -0.34501773 0.33459514 -0.6782914 -0.4191069 -0.17700994 -0.34444115
00000000: 77c5 b43e e58c 173e d535 0dbf 0b78 d0be
00000010: 374b 2a3f b8f2 f33e a3db 9dbe 3f3d 36be
00000020: 4d70 2cbf 123c 50bc 7751 08bf 67a1 0bbf
00000030: e495 1fbd ea6e d93d 0b44 94be 5dd3 d63e
00000040: 8f50 dcbe 6440 243f e51a f83e 88a6 18bf
00000050: 2536 34be 67b0 023d 8f49 d33d 86bb 2b3e
00000060: ff12 8e3e 4a7d 2d3d 2aa6 b0be 0e50 ab3e
00000070: 81a4 2dbf 2e95 d6be 1842 35be 975a b0be
